backend/models/cinema_v1_4m_model.pth (torch, 770637 bytes, 36 tensors)

color_matrix f4 [3, 3]
000000 3a 3b 75 3f c5 e0 16 bc 21 d1 34 3a b8 a5 65 3b
       0.957935 -0.009208863 0.0006897618 0.0035041403
000010 44 43 76 3f 8a 7f 6a bb 5e d8 bf 3b e3 a8 32 bc
       0.9619639 -0.0035781586 0.0058546504 -0.010904524
000020 f7 58 76 3f
       0.962295

color_bias f4 [3]
000000 35 f2 54 bc fd 88 c4 bb 04 3a 3d bc
       -0.0129972 -0.0059977756 -0.0115494765

conv1.weight f4 [64, 3, 3, 3]
000000 f8 5f 0b bd cb 98 0b be e2 c0 0a 3e fe 56 9e 3d
       -0.03402707 -0.13632505 0.13550141 0.07731436
000010 12 a6 eb bd f6 fe a2 3c 8b 8c cb bd a6 6b d8 bb
       -0.11506285 0.019896965 -0.09938916 -0.0066046296
000020 b1 ec 19 3e 6d ea 1d bc 5a 27 05 be dc 5e 22 3e
       0.15031697 -0.009638411 -0.13003293 0.15856498
000030 80 51 88 3a 35 7a 06 3e d4 02 85 bb 06 f5 5b bd
       0.0010400265 0.13132556 -0.004059175 -0.05370047
000040 53 cb 35 3e 4d 2b 24 3e 79 fe b7 bc 3a 4f 08 be
       0.17753343 0.16032143 -0.02246021 -0.13311473
000050 51 d7 27 3e 74 e6 bc bc b7 38 35 be 94 54 42 be
       0.1639073 -0.023059107 -0.17697416 -0.18977576
000060 7c 4a 20 be 96 20 2c 3e a5 db b5 bd f6 51 c9 3d
       -0.15653414 0.16809306 -0.088797845 0.09830086
000070 b5 61 11 3e ae 5d 0f 3e 69 c3 5a 3c a8 00 06 3e
       0.14197429 0.1400058 0.0133522535 0.13086188
000080 5b a5 bc bd ec e0 e2 3d 33 2b 2d bc eb 18 15 be
       -0.092112266 0.11078057 -0.0105693815 -0.14560287
000090 63 64 fa 3d 51 c9 28 bd ce c3 31 3e d4 d0 39 bd
       0.122261785 -0.041207615 0.1735985 -0.04536517
0000a0 ad 8c 3f 3d e8 61 78 3c da 97 06 bd 63 f5 7c 3c
       0.04676502 0.015160061 -0.03285966 0.015439364
0000b0 eb 3c 42 3e 94 d8 29 be 47 f5 22 be 4b 26 f2 bd
       0.18968551 -0.16586524 -0.15913878 -0.1182371
0000c0 43 d3 2a be 1a f6 c0 bb b9 0f 21 3e 5d 44 1b 3e
       -0.16682152 -0.0058887126 0.15728654 0.15162797
0000d0 df 9a ce 3d 82 95 f4 bd 02 68 ee bd c0 ba 19 bd
       0.10088133 -0.11942579 -0.11640932 -0.037531614
0000e0 17 20 ec bd de 59 90 bc 91 5c b1 3d 61 6c 16 3e
       -0.11529558 -0.017620977 0.08660234 0.14689781
0000f0 a0 a9 c0 3d 54 fe c3 bd 3d 88 0e 3e f9 82 9f bd
       0.094073534 -0.095699936 0.13919158 -0.07788653
000100 0b b7 49 be 14 ce b1 3d 39 39 1a be 8b 9b 38 bd
       -0.19698732 0.086818844 -0.15060891 -0.045070212
000110 36 ee 5e 3d b2 24 17 bd 56 55 98 bd 5a 9a 19 be
       0.054426394 -0.03690023 -0.074381515 -0.15000287
000120 9e d7 ad 3c ca 41 f7 bd e7 da 7e bd 2d e1 a9 bd
       0.021220978 -0.12073095 -0.06222048 -0.08294902
000130 17 67 96 bd 5b f8 e5 bd 16 cb 2e bd 1d 17 17 3e
       -0.073438816 -0.11229011 -0.042674147 0.14754911
000140 07 24 f9 bd 98 6b f1 3b d1 f3 1c be c0 04 02 be
       -0.12165075 0.0073675625 -0.15327384 -0.12697124
000150 a9 6e e7 b9 d4 6f 5e 3e 0d eb 02 3d 50 1a 01 3c
       -0.00044142202 0.21722347 0.031962443 0.007879809
000160 44 fb c3 bd 96 17 d9 3c 66 f7 7a bd 7c 8e fc 3d
       -0.095694095 0.026500504 -0.061271094 0.12331864
000170 55 23 20 be d5 33 cb bc 52 56 4f 3e 70 58 15 be
       -0.15638478 -0.024804989 0.20247772 -0.14584517
000180 11 f8 4a 3d 86 27 5f 3c 7d 99 5f 3e 0d ec ca 3c
       0.04955298 0.013620263 0.21835895 0.02477076
000190 67 2e 56 3e 05 f3 fe bd fd e0 e2 3d 25 ea 56 3e
       0.20916139 -0.12448696 0.11078069 0.20987757
0001a0 71 bf 07 bc fa 6e 47 3e f9 d3 4a 3e 16 7c c8 3d
       -0.008285389 0.19475928 0.19807424 0.097892925
0001b0 aa 74 07 be 70 f6 91 bd d8 fc b6 bd 69 79 57 3e
       -0.13228098 -0.07127082 -0.08934945 0.21042408
0001c0 56 c3 17 be b6 61 41 3e e2 b4 aa bd 3f 55 5f bd
       -0.14820608 0.1888493 -0.08335282 -0.054524656
0001d0 82 3a c5 3d 2e 13 04 3e f8 1d b6 3d f2 59 0d 3e
       0.096303 0.12897941 0.08892435 0.13803843
0001e0 99 08 11 be df 4a af bd ad b3 4a 3e b9 f2 13 bd
       -0.14163436 -0.085592024 0.19795103 -0.03612015
0001f0 dc 5e fd bd 26 4e 4d 3e b6 72 aa 3a 89 09 c7 3d
       -0.123716086 0.20049343 0.0013004157 0.097186156
000200 61 83 2d 3e 8e 5a 9b bc 09 09 54 3e 27 2d 99 bd
       0.16944648 -0.018964078 0.20706572 -0.07479315
000210 ab 27 b4 3d 53 09 e0 bd 6e 20 6f 3d b6 32 17 3e
       0.087966286 -0.109392785 0.058380537 0.14765438
000220 c9 af c4 bd 15 61 3e 3e 97 7d 08 bd cb 66 54 3e
       -0.09603841 0.18591721 -0.033322897 0.20742337
000230 11 a1 e0 3d fd 83 ee 3d 91 74 07 be b1 f4 02 3e
       0.10968221 0.116462685 -0.1322806 0.12788655
000240 49 4a 4a 3d c8 39 48 3e 2b a9 14 3e 77 0b 56 3e
       0.04938725 0.19553292 0.14517657 0.20902811
000250 a2 86 7b bd 9c a3 ca 3d fd 1b 04 be c5 45 db bd
       -0.061407693 0.09894487 -0.12901302 -0.10706667
000260 b7 2c 06 bd 32 c0 57 bd 63 1a 3b 3b d2 54 05 bc
       -0.032757487 -0.052673526 0.0028549663 -0.0081378985
000270 52 66 63 bc b1 8a 47 3e bb ff 29 bd 20 57 10 be
       -0.0138793755 0.194865 -0.04150365 -0.14095736
000280 44 d6 06 be 56 b5 a4 bd ef 26 95 3d 76 7d c3 3d
       -0.13167673 -0.080423996 0.072828166 0.09545414
000290 06 62 7e bc 73 59 2d 3d 8e 9c b4 3d d7 25 ff bc
       -0.0155263 0.042321634 0.08818923 -0.031145973
0002a0 18 1a 7d bc 71 3b 99 bd 6c 37 35 3e a4 ad 3c be
       -0.015448116 -0.07482041 0.17696923 -0.18425614
0002b0 c2 bb 89 bd 34 2a 90 bd d4 55 08 be 03 a9 76 3d
       -0.06725265 -0.070392996 -0.13313991 0.060219776
0002c0 62 02 ba 3d e4 fd fa 3c e7 54 20 3e 19 8c 25 be
       0.09082486 0.030638643 0.15657388 -0.16166724
0002d0 53 fd 02 3d b9 52 a4 bd c5 5e 91 bd 87 b1 ff 3c
       0.03197987 -0.080235906 -0.07098154 0.031212581
0002e0 f2 6d 24 3e bf 41 6b bd db e3 9f 3d f8 73 41 3e
       0.16057566 -0.057435747 0.07807132 0.18891895
0002f0 8f 18 95 bc e8 ac 33 be 64 87 c1 3d e7 fc 17 be
       -0.018200187 -0.17546427 0.09449652 -0.14842568
000300 ba 26 bc bb c4 f0 9b bd 0c 96 19 bd 29 7a 17 be
       -0.0057419213 -0.07614282 -0.03749661 -0.14792694
000310 e7 ce b2 3d e0 65 2c 3e 80 eb b8 3d 72 65 e6 3d
       0.0873087 0.16835737 0.09029293 0.11249818
000320 9d d1 b8 bd 0c c2 07 3e 23 31 2b be 1d 7a 62 3d
       -0.090243556 0.13257617 -0.16717963 0.055292238
000330 cd b3 2a be 4e ca 0b 3d 1b b5 2d 3d 1a 6c 8f 3d
       -0.16670151 0.03412848 0.042409044 0.070030406
000340 53 fa eb bd 09 e4 21 3c 13 80 db 3c 27 50 10 3d
       -0.11522355 0.009881028 0.026794469 0.03523269
000350 cc 19 2e 3e 32 db b5 39 66 33 f0 3d fa 73 e6 3d
       0.17002028 0.00034686323 0.117285535 0.112525895
000360 59 ec 3b 3e f8 8a 35 bc 2a 0a b5 3d a5 0e 1d 3d
       0.18351878 -0.011080496 0.08839829 0.038344044
000370 31 74 20 bd 96 05 6a 3d d7 ae 2c 3d dc c3 ba bd
       -0.03917331 0.057134233 0.042158928 -0.091193885
000380 39 3f 06 3e cd 51 4c 3e 64 c6 3e 3e d9 d6 01 bd
       0.13110055 0.1995308 0.18630368 -0.031699035
000390 18 16 bc bc 0e db 55 3e 5c 4c 50 3e ee da b8 bd
       -0.022959754 0.20884344 0.20341629 -0.090261325
0003a0 1f 02 2b be e8 84 0e be 0c 18 81 bd 77 05 f3 3b
       -0.16700028 -0.13917887 -0.06303415 0.007416423
0003b0 17 dc 6d 3d e2 51 0c bd 36 a7 19 3e a0 f1 81 3d
       0.058071222 -0.034257777 0.15005192 0.063449144
0003c0 33 4b 41 3e e8 09 a9 bd 50 39 0a be 7a 35 42 bd
       0.18876342 -0.082538426 -0.13498425 -0.04741428
0003d0 a7 86 16 3e 29 f4 84 3c 51 f9 dd bd bc 5d 07 be
       0.14699803 0.016229706 -0.10838569 -0.1321935
0003e0 e3 d2 51 3d fd 28 32 be 38 69 14 3e 44 1d 56 bd
       0.051226508 -0.17398448 0.14493263 -0.052274004
0003f0 0e 35 33 bd 13 26 2f 3e b3 26 58 bd d0 2e 12 be
       -0.04375177 0.17104368 -0.05277128 -0.1427567

conv1.bias f4 [64]
000000 86 a1 ac 3d 9f 09 36 bb 16 ed ab 3d 07 a4 0f bd
       0.08429246 -0.002777673 0.0839483 -0.035068538
000010 b8 c4 20 bd f4 44 b5 bc cb 0a 2b be f4 58 27 3e
       -0.039250106 -0.022127606 -0.16703336 0.16342527
000020 cf c7 88 bd 42 8b d5 bd 76 2e 29 3d 8c 70 6c bd
       -0.066787355 -0.10426952 0.041304074 -0.05772452
000030 2a 3e 8d 3d 1b 6e e0 bc 54 05 07 3e 1b 92 87 3d
       0.068966225 -0.027396252 0.13185626 0.06619664
000040 78 ac c7 3d fd 82 15 3e 59 bf 56 3d b3 3f ad bd
       0.09749693 0.1460075 0.052428577 -0.08459415
000050 f1 0c fa 3d 41 f3 bf 3c 84 49 1d be 54 23 22 be
       0.122094996 0.023431422 -0.15360075 -0.15833789
000060 32 47 b9 bd f1 b3 3f 3e 2b f1 d1 3d 64 70 0b be
       -0.090467826 0.18720986 0.10251077 -0.13617092
000070 55 de b9 bd 18 ed c1 bb cb b5 f1 bb 2d eb c5 bd
       -0.090756096 -0.0059181564 -0.0073764077 -0.09663997
000080 1b 51 ae bd 2e ef 12 3d d8 13 a4 3d f9 36 69 3c
       -0.085115634 0.03587263 0.080115974 0.014234298
000090 e1 1a a4 3d 07 38 1f 3e 21 b4 02 bc a3 07 39 3e
       0.08012939 0.15548716 -0.007977516 0.1806932
0000a0 05 44 af 3d 87 60 1c be b4 f0 fd 3d 70 89 b3 bd
       0.085578956 -0.15271197 0.12399426 -0.087664485
0000b0 5a 3e 21 3d 12 44 d4 3d c5 72 0e be 4e f7 d4 ba
       0.039366104 0.10364546 -0.13910969 -0.0016248019
0000c0 ec 4c 19 bc 9c 9a fb 3c bf 61 91 3d 3b ef 02 3e
       -0.0093567185 0.030713372 0.07098722 0.12786572
0000d0 56 a3 12 3e 25 ee 55 39 b4 9c 04 3e 60 d9 c0 3c
       0.1432012 0.00020401979 0.12950402 0.023541152
0000e0 11 72 b7 3c e9 d3 3e be 2b 36 21 3e 57 cf 77 bc
       0.022393258 -0.18635525 0.1574332 -0.015125117
0000f0 ca c4 6b bd a4 eb 08 3e aa a0 36 bd 76 78 43 3e
       -0.05756072 0.1337114 -0.044586815 0.19088921

conv2.weight f4 [64, 64, 3, 3]
000000 ef 02 0d 3d fc ac 6f bc d6 0d d9 3b 39 3c 62 3c
       0.034426626 -0.014628645 0.006623964 0.0138083035
000010 93 5d 10 bc 89 e9 00 bd 3e d0 fc bb aa 4d 9a 3c
       -0.008811372 -0.031472716 -0.007715254 0.018835861
000020 ef 95 0d 3c 8d 60 52 3c 66 3e 1b bd 1f 25 d7 ba
       0.008641704 0.012840402 -0.037901305 -0.0016414261
000030 f5 37 28 bc 27 80 19 3d 25 48 f1 bc fd 9c 9f bc
       -0.010267247 0.03747573 -0.029453347 -0.019484038
000040 6c 60 80 bb 59 fc ec 3c dc 9e 9d 3c 1f 16 24 bd
       -0.0039177444 0.028928922 0.01924079 -0.04006016
000050 ff 36 d8 bc 58 32 3a 3c cf 31 68 bc 8f 40 a7 3c
       -0.026393412 0.011364542 -0.014172032 0.020416526
000060 a3 0b b4 bc 48 94 9a bc c9 03 69 bc 02 f5 09 bd
       -0.021978205 -0.018869534 -0.014222094 -0.033680923
000070 5b e4 0e 3d 94 f7 c6 3c d6 b7 21 bd b9 e1 cb 3c
       0.034885745 0.024287976 -0.03948196 0.024887906
000080 09 dc 1f bd c5 11 1f 3d 5e bb 8d bc 64 df f6 bc
       -0.0390282 0.038835306 -0.017301258 -0.030135818
000090 a7 55 03 bd 7c ad 5b bc 7e 80 eb bc 54 58 22 bd
       -0.032064106 -0.013408061 -0.028747793 -0.039635018
0000a0 48 15 1c bd b0 ac dc 3a 75 e4 45 bc 68 41 c0 bb
       -0.038106233 0.0016836133 -0.012078394 -0.005867172
0000b0 48 d1 ef bc ec aa 8e bc f9 c9 18 bd e1 35 ac 3c
       -0.029274598 -0.017415486 -0.03730199 0.021021785
0000c0 e9 26 23 3d d1 44 09 3d 9d 3a db 3a b2 c0 06 3d
       0.03983203 0.033512894 0.0016725842 0.032898612
0000d0 a9 54 29 3d 32 48 b8 bc 59 9d 82 bc f2 99 5b bc
       0.041340504 -0.022495363 -0.01594417 -0.013403403
0000e0 fa c2 d5 3c d0 d1 75 bc 2b 98 80 3c 63 1f e2 bc
       0.026093949 -0.0150036365 0.01569756 -0.027602857
0000f0 a6 15 15 bd 21 e5 f2 bc 54 4e 54 bc b5 f9 a7 bb
       -0.0363976 -0.029650273 -0.012958128 -0.005126203
000100 10 73 24 3c 7c 10 d3 bb c9 9a 30 bc 1d d2 9b 3c
       0.010037199 -0.006441174 -0.010779091 0.019021088
000110 a5 e2 bb 3c 68 19 26 3d a6 bc 13 bd f3 b2 15 bc
       0.022935221 0.040551573 -0.03606858 -0.009136903
000120 65 71 23 3d bc 73 82 3c 33 4f 05 3d 7e 9a 12 3d
       0.039903063 0.015924327 0.032546233 0.035791866
000130 02 5e bc 3b 5b ef eb bc e1 58 1f bd 75 8d 03 3c
       0.0057485113 -0.028800657 -0.03890312 0.008029331
000140 89 6f eb 3c e9 11 43 3c 10 c7 b7 bc 57 89 76 bc
       0.028739708 0.011906126 -0.022433788 -0.015047393
000150 91 f0 e2 3c 6c b7 57 3c 90 24 d6 bc 77 55 c8 3b
       0.027702602 0.01316629 -0.026140481 0.006113704
000160 78 e6 ee bb 03 37 9c bc 20 0d 99 3c 60 1c 1c 3a
       -0.0072906576 -0.0190692 0.018683016 0.0005955156
000170 b0 a2 2b bd db 76 00 bc 14 54 42 bc 95 33 ab 3c
       -0.041903198 -0.007840837 -0.011860866 0.02089862
000180 2b 1e 6b bb 09 3a 09 3d 49 2a 27 3c 54 17 95 bc
       -0.0035876136 0.033502612 0.010202953 -0.0181996
000190 3f 19 06 3c f5 dd 00 bd 07 6b 8e 3c 3a d1 81 3a
       0.00818473 -0.031461675 0.017385019 0.0009904273
0001a0 a8 65 04 bc b0 a0 a3 bc 1f 69 21 3d 11 7e fc 3b
       -0.008080877 -0.019974083 0.039406892 0.007705458
0001b0 90 65 d3 b9 95 48 04 3c e3 8a fc bc 57 25 14 bd
       -0.00040320726 0.0080739455 -0.030827945 -0.036168423
0001c0 f3 89 57 bc df ec d4 bc 95 a9 23 3c 2e 9f 16 3b
       -0.013155448 -0.025991855 0.009989162 0.0022983062
0001d0 29 40 29 3d 05 bf 84 b9 6e 9f 9b 3c 49 d2 b0 bc
       0.041320954 -0.00025319323 0.01899692 -0.021584647
0001e0 84 55 29 3d 91 a4 17 bd 5a fa 31 3b 06 c5 6d bc
       0.04134132 -0.037022177 0.0027157278 -0.014512306
0001f0 cd 6f 03 3c 52 38 1a 3d de 85 f8 bb 18 fd 1f 3d
       0.008022261 0.037651367 -0.0075843176 0.03905973
000200 4b b6 7d 3c 74 ea ad bc f7 19 e1 bc 44 e5 c5 bc
       0.015485357 -0.02122996 -0.027478201 -0.024157174
000210 51 f4 8e bc 24 3b 16 bd 86 d9 0a ba a3 2f 11 3c
       -0.017450484 -0.036677495 -0.0005296696 0.008861455
000220 a3 30 a8 bc 9a 58 c3 bb 66 ac b4 bc 37 b4 ab 3c
       -0.020531004 -0.00596149 -0.022054862 0.020959957
000230 95 b8 62 bb 7b 1c 0b 3d 80 9b 2d 3c 93 91 13 3d
       -0.0034594883 0.033962708 0.010596156 0.036027502
000240 ef 93 22 bc ea 9c f5 3c d5 69 ad 3c 98 35 15 bd
       -0.009922965 0.029982049 0.021168629 -0.036428064
000250 7a 3a 3f 3c dd 74 f8 bb 34 83 18 3d 04 5d d4 bb
       0.011671657 -0.0075822906 0.0372345 -0.006480815
000260 ae 1e 8f 3b 6a f3 61 bc c4 b0 b2 bc d4 7f 73 bc
       0.004367671 -0.013790945 -0.021812804 -0.01486202
000270 d6 8f f9 3c 5f 3c c9 bc 5c 36 58 bc 3e 06 ae bc
       0.030464094 -0.02456492 -0.013196554 -0.02124321
000280 f5 2b f4 3b 0c 81 e8 bc c0 f8 25 3d 6b 9b 6a bc
       0.007451529 -0.028381847 0.04052043 -0.014319281
000290 45 58 13 3c 2e 87 83 bb 3e b5 3f 3c ed 78 ae 3b
       0.008993213 -0.0040139174 0.011700926 0.005324474
0002a0 60 f2 0e 3c c2 ae 73 bc 59 63 bd 3c 02 39 16 3b
       0.008724779 -0.0148732085 0.023118662 0.0022922163
0002b0 90 10 0e 3b 8e 3d 08 bd 3b 17 0f 3d 62 14 54 3c
       0.0021677352 -0.033261828 0.034934264 0.012944313
0002c0 23 48 14 bd f6 1f 5f 3a 3c c2 b7 bc c3 6d 22 bd
       -0.036201607 0.00085115375 -0.022431485 -0.03965546
0002d0 35 b0 e1 bc 1a d8 03 3d bb bd d8 bb c4 a8 80 3c
       -0.027549842 0.032188512 -0.0066144145 0.015705474
0002e0 e3 3c 58 3c 03 28 9f 3b ce 45 e7 3c 4a 05 97 3c
       0.01319811 0.0048570647 0.028231528 0.01843514
0002f0 d2 f5 0f 3b fb 80 bc 3c 23 46 19 3d 97 34 eb 3c
       0.0021966589 0.023010721 0.037420403 0.0287116
000300 47 3c c1 bc ba b4 95 bc eb 48 eb bb 4a d8 25 3d
       -0.023588313 -0.018274654 -0.0071803234 0.040489472
000310 35 99 11 bd f4 7a 1e bd 22 93 ab 3c f8 87 77 bc
       -0.0355465 -0.038691476 0.020944182 -0.015108101
000320 87 b8 15 bd 94 4a 7a 3c 86 3f c4 3c bb fc 00 bd
       -0.036552932 0.01527657 0.023956072 -0.031491023
000330 d8 34 3d bb 9c e4 75 bc 6b 83 14 bd 36 d7 ef bc
       -0.0028870609 -0.015008118 -0.036258142 -0.029277425
000340 48 b8 ce 3b b2 27 d6 3c de da 27 bd 56 0b b2 3c
       0.006308589 0.026141975 -0.040980212 0.021733921
000350 9c 0b 4d 3c eb 1b 06 bd c8 fb 09 3c f1 e9 04 3d
       0.012514975 -0.03274147 0.008421846 0.032449666
000360 83 43 11 3d 68 fd 01 3d cb e6 96 3b 68 fc b9 3b
       0.035464775 0.031735808 0.0046051494 0.005675841
000370 d4 f4 f1 bc b1 42 0d 3d 67 6d 15 bd 65 e9 ce 3b
       -0.029535688 0.03448743 -0.036481287 0.006314444
000380 d1 67 21 bd 7c 2b 1f bd a8 97 1c bd ae 9e 98 3c
       -0.039405648 -0.03885983 -0.03823057 0.018630352
000390 71 fa c9 bc 47 99 1f 3c f7 af 08 3b ef 1e db 3c
       -0.024655553 0.009741134 0.0020856836 0.026748149
0003a0 0e b4 dc bc 60 f1 1e bc bb 4e 10 3d 38 17 9c bc
       -0.026941326 -0.009701103 0.035231333 -0.01905404
0003b0 65 8d 57 bc e2 79 db bc d2 7d 86 3c 2f a7 da 3c
       -0.01315627 -0.026791517 0.016417418 0.026691047
0003c0 81 ee fd 3c 96 08 9a 3b 7c 64 9f bc 73 0b 26 bd
       0.030997517 0.0047007306 -0.019457094 -0.040538263
0003d0 34 d0 16 bc 18 05 e8 bb a8 5f 32 3c 9e 50 1a 3b
       -0.009204913 -0.0070806853 0.010887064 0.0023546587
0003e0 e8 6d fa bc 9a ad f5 3c c3 d1 0a bd 25 3d 99 3c
       -0.030569986 0.029990006 -0.03389145 0.018705914
0003f0 33 db ef 39 ac 02 7f 3c 7f 8d 59 3c ab 46 9a 3c
       0.00045748948 0.015564602 0.013278364 0.018832525

conv2.bias f4 [64]
000000 90 62 6f bc 5a 53 d2 bc b8 95 16 bd a9 23 0a bc
       -0.0146109015 -0.02567451 -0.036763877 -0.008431354
000010 5f 02 bd 3b e8 20 5e bc b1 03 61 3a 38 7a 3b 3d
       0.005768105 -0.01355765 0.0008583619 0.045770854
000020 d7 1f 10 3c 42 94 c5 3c bd 68 e6 bb d9 d0 86 bb
       0.008796654 0.024118546 -0.0070315287 -0.004114252
000030 8d ee 0e bd 64 55 06 3c 19 7a ef 3c ac 15 09 bd
       -0.03489547 0.00819907 0.029233025 -0.033467934
000040 1e 9b 5f bc 6f f7 14 bd 68 99 40 3c 78 0f 09 ba
       -0.013647823 -0.036368784 0.011755325 -0.000522844
000050 c6 01 f3 bb 31 35 a8 bc 9f 24 d8 3c 31 bc ad ba
       -0.007415983 -0.020533176 0.02638465 -0.0013254938
000060 32 73 e8 3c 01 3f 11 bd d0 7c 2a bc d6 d1 df bc
       0.028375242 -0.035460476 -0.010405734 -0.027321737
000070 40 5b ae 3b 0b cc 01 bd 39 bc af 38 1a 81 a1 ba
       0.0053209364 -0.03168873 8.3797095e-05 -0.00123218
000080 82 81 df bc 28 1f 43 3d 6a c8 13 3d 26 6b 1d bd
       -0.027283434 0.047637135 0.0360798 -0.038432263
000090 5f 9f 0d 3d 4d 9e 7c bc 1d 4d 53 bc 00 c5 f1 3c
       0.034575816 -0.015418601 -0.012896803 0.029512882
0000a0 b8 95 a1 bc 54 2a 3f 3d a2 8d 2a 3d 1e b2 f2 3b
       -0.019724712 0.046671227 0.041638978 0.007406487
0000b0 5c 9b 06 bc da 1f e0 3c a1 13 2c 3d a0 21 47 3c
       -0.0082157515 0.027358938 0.042010907 0.012154013
0000c0 3d d6 fa 3c 2b 67 5c bb ec ec da 3b 7e b8 dc bc
       0.030619735 -0.003363083 0.0066810753 -0.026943441
0000d0 a1 71 8f bc c7 3f 16 3d 53 c2 62 3a fd ce e9 bb
       -0.017510237 0.036681917 0.00086501724 -0.0071352706
0000e0 90 fb fb 3b e4 99 df 3b 42 1f 23 bc 6e c2 09 bd
       0.0076899007 0.006823765 -0.009956183 -0.03363269
0000f0 1c fb ee 3c e0 36 0f bb 3c b6 db 3c 74 3f 84 bb
       0.029172473 -0.0021852776 0.026820295 -0.0040358845

conv3.weight f4 [32, 64, 3, 3]
000000 6b 46 c2 ba 80 fc b1 bb 31 f0 d5 bb ba 66 b8 3c
       -0.0014822012 -0.0054317117 -0.006528877 0.022509921
000010 5e 34 05 bd 75 3f 0a bd ff 9e 23 bd 55 f3 39 3c
       -0.032520644 -0.033751924 -0.039946552 0.011349519
000020 82 e6 c2 bc c1 90 d9 bc 61 97 09 bc 4d 26 19 bd
       -0.023791555 -0.026558282 -0.008397908 -0.037390042
000030 1c d6 ee bc 0f e1 60 bc 56 f1 b1 bb 21 fe ac 3c
       -0.02915483 -0.013725533 -0.005430381 0.021117272
000040 0d 77 de bc f9 cf fa bc 68 26 44 bb a7 cd 2c 3d
       -0.027156377 -0.030616747 -0.0029930118 0.042188313
000050 6d 48 19 3d 94 d2 1a bc b1 98 28 3c 55 6e 3d 3d
       0.037422586 -0.00944962 0.010290311 0.0462478
000060 88 70 c7 bc b9 22 df 3c 93 ce f9 3c a8 e5 1b 3c
       -0.024345651 0.027238237 0.03049401 0.009515204
000070 0a a9 6c bc 77 65 81 bc d7 f7 1a 3d 7d fb c9 bc
       -0.014444599 -0.015795453 0.037834015 -0.024656052
000080 71 d9 2d 3d 5e 64 01 bd 87 fd 93 3c 4b 09 1e bc
       0.042443696 -0.03158986 0.018065227 -0.00964577
000090 4d 44 27 3d 41 6c d7 bc 52 77 21 3d eb 25 28 3d
       0.04083662 -0.026296737 0.039420433 0.041051786
0000a0 39 7a 42 3c c3 ae b6 3c d8 c7 0a bd b0 53 3c bc
       0.01186996 0.02230013 -0.033881992 -0.011494562
0000b0 cd c8 47 3b 12 44 37 3d 1f 98 80 3d 31 b9 3e bc
       0.0030484677 0.04474265 0.06279015 -0.011640833
0000c0 76 25 3c 3d 2b f2 51 3b 45 6f 3c bb fb 7e 87 bc
       0.045934163 0.0032035212 -0.0028752845 -0.016540041
0000d0 09 b4 40 3c 52 a0 f1 bc d9 d4 02 3d 0e 27 17 bd
       0.011761674 -0.029495392 0.03194127 -0.03690248
0000e0 9c 10 43 bc b0 0a 01 bd 2a 34 53 bb b1 4f 24 bd
       -0.011905815 -0.031504333 -0.0032227137 -0.040115062
0000f0 d0 92 83 bc 50 54 dc ba 1c e8 08 3c 9d aa d3 3c
       -0.016061217 -0.0016809795 0.00835612 0.02583819
000100 0f 33 04 3d b4 60 0c ba b1 64 01 bd 97 38 cb bc
       0.032275256 -0.0005354986 -0.031590167 -0.024807258
000110 d9 26 3d 3b 77 28 b3 bc c6 1a 31 bc ea 69 73 bc
       0.0028862266 -0.021869881 -0.010809606 -0.014856795
000120 fa 36 ac bc 82 65 09 bd 8c a7 5d 3a df 4f 7b 3c
       -0.021022309 -0.03354407 0.00084554474 0.015338867
000130 de 36 88 bc b9 46 39 bd 7f 4b ed bc 61 70 ac bc
       -0.016627725 -0.045233462 -0.028966663 -0.02104968
000140 c1 bd cf 3b 48 ec 8d 3c 01 76 69 3c ce 30 4c bc
       0.006339759 0.017324582 0.014249326 -0.012462808
000150 0d 70 44 bd 50 31 62 bc 2b a8 28 bd 9b 6a 05 bd
       -0.047958422 -0.013805702 -0.041176002 -0.03257237
000160 5e c2 d8 bc 85 3c e5 bc ff d0 64 3c 52 2d 07 3d
       -0.026459869 -0.02798296 0.013965844 0.033002205
000170 42 da df bb 71 a4 d6 bc 72 ed 4d bb df 55 8e 3c
       -0.0068314383 -0.026201459 -0.0031422046 0.01737493
000180 1d 70 05 3c be 54 64 bc 98 a9 49 bc ed a6 c4 39
       0.008144406 -0.01393622 -0.012308501 0.00037508403
000190 28 ad 5c 3c b8 9a 50 bc 6c 2e c2 bc 80 ad ca 3c
       0.013469018 -0.0127322 -0.023703776 0.024740934
0001a0 41 e5 4b 3d cc 07 d2 bc b3 02 a8 3c 14 11 28 3c
       0.04977918 -0.025638483 0.0205091 0.010257978
0001b0 1c 47 53 3d 82 24 70 3d 35 51 c9 3c e7 19 0a 3d
       0.051581487 0.058628567 0.024574855 0.03371611
0001c0 15 8d d3 bb 19 46 2f 3d 0b aa da 3a 7c 37 99 3b
       -0.0064560273 0.04279146 0.0016682757 0.0046758037
0001d0 3e 2c 0a 3d e1 b4 0e 3d 46 fd 1f 3c 65 33 91 bc
       0.0337336 0.03484047 0.009764975 -0.017724702
0001e0 ce 87 04 bd 98 4d 18 3d 94 95 7f 3c 7a d5 b7 3c
       -0.032356076 0.037183374 0.015599627 0.02244066
0001f0 cd 0d ec 3c cb e2 1d 3d 23 20 01 bd d5 ee 27 3b
       0.028815174 0.038546365 -0.03152479 0.0025624533
000200 dc 14 d3 bb 1f d1 7d 3c 8a 26 51 3d 90 7d 9c 3b
       -0.0064416956 0.015491753 0.051062144 0.0047757104
000210 c3 de 5b 3b d6 ba 8c 3c 3a 17 17 3d ec ab 46 3d
       0.0033549524 0.017178934 0.036887385 0.0485038
000220 07 dd d1 bc 3a 11 90 3c 6d cf eb bc a1 67 51 3d
       -0.02561809 0.01758634 -0.028785432 0.05112422
000230 e0 cf 5e 3b ec c9 45 3d cc aa 52 3d 2b d2 0e 3d
       0.0033998415 0.04828827 0.051432416 0.0348684
000240 e1 18 47 bb 82 0e 32 bc e9 93 f7 bc 5a cd 26 3c
       -0.003037982 -0.010867717 -0.030221896 0.010180796
000250 cf 22 a4 bc 62 db 0c 3b ca cf 2a bc 9e 5a 1e 3c
       -0.02003613 0.0021493067 -0.010425517 0.0096651595
000260 8b 09 87 3c 29 e2 22 bd 7d 86 d8 bc 0a e4 44 3c
       0.016484043 -0.039766464 -0.026431317 0.012017259
000270 f9 8e 07 bc 80 9f d3 bc 99 7e 3f bc e5 89 88 bb
       -0.008273833 -0.025832891 -0.011687898 -0.004166829
000280 47 9c 3f 3c 34 c1 08 bc 3b 2d 0c 3d 1f 98 3b 3c
       0.011694974 -0.008346844 0.034222823 0.011449843
000290 81 b7 0e bd 95 f3 14 3c 96 e1 1c bc 47 87 c7 bc
       -0.03484297 0.009091278 -0.009575268 -0.024356497
0002a0 53 da 9d bc 4f 9b 1a bd 84 29 25 bd 09 ef 03 bc
       -0.019269144 -0.03774577 -0.040322796 -0.008052596
0002b0 c1 6b a7 3c c6 de 38 3d 09 cf 76 3b 24 39 2b bc
       0.020437123 0.04513433 0.0037660024 -0.010450635
0002c0 f1 fe 18 3d fb bd 87 3c f0 88 fc bc 88 6f 1b 3d
       0.037352506 0.016570082 -0.030827016 0.03794816
0002d0 8b c3 08 bd 9a 03 7a bb 51 22 65 bc 19 0e 1b 3c
       -0.03338961 -0.003814912 -0.013985232 0.00946381
0002e0 35 14 aa bc 34 49 23 3d 56 0d 67 bd 5a 3f 27 3b
       -0.020761589 0.039864734 -0.056409203 0.0025519938
0002f0 f0 db 38 3d 89 a9 00 bd b7 db 8c bb cf df c4 3a
       0.045131624 -0.03141168 -0.004298653 0.0015020313
000300 77 e3 16 bd d4 a4 87 3c 81 56 a1 bb d4 6b 85 bb
       -0.03683802 0.016558088 -0.004923642 -0.004071692
000310 ff c0 b6 bc 45 f3 9e bb 8e 3a 03 3b 03 8d 30 3d
       -0.022308825 -0.0048507773 0.0020023915 0.04310323
000320 41 12 33 3d 4d 18 31 bb 7c 33 36 bc 4a f4 fb bc
       0.04371858 -0.002702254 -0.011120673 -0.030756135
000330 71 b0 2f bb 61 58 26 3d 64 7a a3 3c ec 00 14 bb
       -0.0026808048 0.04061163 0.019955821 -0.0022583557
000340 e6 1e 51 bc dc fa b6 3b 19 e6 7e bc ee 1d ec bb
       -0.012763714 0.005584104 -0.015557789 -0.0072057163
000350 4e e4 5e 3a 4b 6f 0e 3c 24 3e 2f bd bb ca c8 bb
       0.0008502648 0.0086935265 -0.04278387 -0.006127683
000360 b3 77 c2 3c 0b e7 8e bc 0e 6d 3e 3c 3b d5 d3 3c
       0.023738718 -0.017444154 0.01162268 0.025858512
000370 78 30 8b bc b5 20 86 3c 97 d1 4f 3b 71 27 72 bc
       -0.016990885 0.016373018 0.0031710619 -0.014779911
000380 54 81 46 3d 08 6b aa bc 94 a5 f3 3b 8b 01 8d bb
       0.04846318 -0.02080299 0.00743551 -0.0043031625
000390 06 18 2d 3c bd 8a 4f 3d 64 c9 db 3c f4 2a 63 bc
       0.01056481 0.05066942 0.026829429 -0.013865221
0003a0 b8 a8 91 bc f8 74 ca 3a 25 cb 1e bd 50 5b 6f bc
       -0.017780647 0.0015446236 -0.038767952 -0.014609173
0003b0 30 c7 70 3c 41 73 98 ba 25 0d b2 3c 36 f8 2f 3d
       0.0146959275 -0.0011631028 0.021734783 0.04296132
0003c0 fc da 30 bd fd 84 e5 3b d0 cd e2 3c eb 65 c6 3c
       -0.04317759 0.007004379 0.02768603 0.02421852
0003d0 68 c8 b7 3b 7f 36 40 3c eb a2 4f bc d1 ba e0 bc
       0.005608607 0.011731743 -0.01267312 -0.027432831
0003e0 f0 ad f2 3c d6 de 98 3c 84 88 38 bc 0e f0 b7 bc
       0.029623955 0.018660944 -0.011263017 -0.022453334
0003f0 3a 4c 4b bd de e2 71 bd 94 ea 38 3c d3 80 83 bd
       -0.049633242 -0.059054248 0.0112863965 -0.06421056

conv3.bias f4 [32]
000000 d5 4e ac 3c 08 58 d0 3c 23 a7 ca bc 21 62 da 3c
       0.021033684 0.025432602 -0.0247379 0.02665812
000010 e2 da dd bc 93 89 15 3d b3 01 c6 3c e8 64 0e bd
       -0.02708191 0.036508154 0.024170732 -0.0347642
000020 2e 48 e3 3b c1 b9 83 3c 64 65 0c 3c 7f 5c da bc
       0.0069360947 0.016079785 0.008569095 -0.026655434
000030 64 e9 bf 3c bb d5 be bc c8 23 0d bb aa 00 be 3b
       0.023426719 -0.023295274 -0.002153622 0.005798419
000040 59 f7 04 bd 02 91 65 3c 2c 4d d7 3c f5 44 af 3c
       -0.03246245 0.014011623 0.026281916 0.021395186
000050 a5 0d 7d 3c a0 fa bb bc bb 0b ef 3c 3a f9 e0 bc
       0.015445148 -0.022946656 0.029180398 -0.02746259
000060 fd e0 c7 bc f8 cf 0c bc 14 46 10 3d b7 01 6b 3b
       -0.024399275 -0.0085945055 0.03522308 0.0035859176
000070 de 93 76 bc bf 6f c4 bc ed af 11 bc a7 9c fb bb
       -0.015049903 -0.023979066 -0.008892042 -0.0076785865

conv4.weight f4 [16, 32, 3, 3]
000000 4f df db 3c a7 9c 13 bc 84 50 b5 ba ee 1a 00 3d
       0.02683988 -0.009009517 -0.00138332 0.031275682
000010 89 6a 04 bd 2f 18 4d 3d 40 8c 10 bd 36 28 4f 3c
       -0.032328162 0.05007189 -0.035290003 0.012643864
000020 e8 96 16 3b b6 f8 82 3d ed ea 3a bc 79 2a 2e bc
       0.002297813 0.06395094 -0.01140855 -0.010630243
000030 5e 42 e3 bc b0 98 c7 bc 8d 70 50 3d 6a 1d 17 bc
       -0.027741607 -0.0243648 0.050888587 -0.009223321
000040 10 13 61 3d 4c 1f 94 bc b8 5e 17 3c 59 a7 2c bd
       0.05494982 -0.01808133 0.009238891 -0.042151783
000050 35 7c 85 bc ea 44 67 3d d1 77 6d bc 47 94 e3 3b
       -0.016294578 0.056462206 -0.0144938985 0.0069451663
000060 37 90 0e 3c fe 07 54 3b 44 c0 34 3d e5 64 2a bd
       0.008701376 0.0032353397 0.04412867 -0.041600127
000070 8b 0d 15 3c 75 e9 4c ba 4b b0 77 b9 3e 08 94 bc
       0.009097467 -0.000781677 -0.0002362143 -0.018070336
000080 13 ed 5a 3c 86 68 30 bc 82 b2 a1 bc 88 4e 56 bd
       0.013362187 -0.010767108 -0.01973844 -0.052320987
000090 dd b2 f1 3c 43 0c f4 3c ac 4c 31 3d ea c9 34 3d
       0.029504234 0.029791003 0.04328601 0.044137873
0000a0 46 b8 ae 3c 5a 26 27 3d 46 49 10 bc cd 1f 0c bd
       0.021328103 0.04080806 -0.008806532 -0.034210015
0000b0 45 7d 33 3c 9e 28 9d bc 40 73 ee 3c d0 58 30 3d
       0.01095516 -0.019184407 0.02910769 0.04305345
0000c0 35 86 fc 3c 1b b7 b2 bc 5d 1b f0 bb 39 77 14 3d
       0.030825714 -0.021815827 -0.0073274807 0.036246512
0000d0 41 cb bf bc 98 7d 7e 3d c6 31 15 bc 30 46 b2 3a
       -0.023412349 0.062131494 -0.009106105 0.001360124
0000e0 79 27 da bc d2 dd 81 3d ab 11 3e 3c 1e ec ce bc
       -0.02663015 0.06341137 0.011600892 -0.025259074
0000f0 82 4e d3 bc 4f 85 7e 3d 10 77 7c 3c 92 b4 95 bc
       -0.025794271 0.06213885 0.015409246 -0.01827458
000100 87 24 e9 bb c6 c4 8c bc e0 95 a1 3c 48 f1 1e 3b
       -0.00711495 -0.017183673 0.019724786 0.0024252702
000110 fc 21 01 3d a9 4f 12 bd 0b 3d 5c 3d e4 f8 b3 3c
       0.03152655 -0.0357205 0.053769153 0.021969266
000120 8d 97 38 3d 6c e2 3c 3b f6 07 64 3d 0d c8 b4 bc
       0.045066405 0.0028821481 0.055671655 -0.022068048
000130 bc de e4 bc 67 7c 4e 3d cb 42 30 3d 23 f7 5e bc
       -0.02793824 0.050411608 0.04303245 -0.013608727
000140 5b 5b d9 3c db 0f 65 bc 1a 7a 5e bd c3 3e 6c bc
       0.02653282 -0.013980831 -0.054315664 -0.01441926
000150 35 42 3b bd 7e b3 2d bd db 09 15 3c f9 11 4c bd
       -0.045717437 -0.042407505 0.009096588 -0.049821828
000160 7c ed 67 bd 0d c9 ac bc 51 10 5f bd f8 fd 32 3d
       -0.056622967 -0.021091962 -0.05445892 0.043699235
000170 26 68 2c 3d 92 1f 06 3d 44 54 51 3d 5e 48 10 bd
       0.04209151 0.03274495 0.051105753 -0.035225265
000180 69 0f 87 3b b7 d4 62 bd ae b3 74 3b 65 41 74 3c
       0.00412171 -0.055378642 0.0037338543 0.014908169
000190 c0 4d 84 bc 24 e6 7f bc c4 a8 03 3d 62 3b 12 bc
       -0.016150355 -0.015618835 0.03214337 -0.008925291
0001a0 ff fb 26 bd e3 79 de 3c b6 38 2f bd d7 5e 56 3c
       -0.040767666 0.02715773 -0.042778693 0.013084135
0001b0 0e e3 f6 3c 0a 7b 6e 3c 41 03 18 bd 34 ba 44 3d
       0.030137565 0.014555702 -0.03711248 0.04802914
0001c0 01 48 40 3d bc 12 12 bd 76 f2 30 3c 1e 57 15 bc
       0.04694367 -0.035662398 0.010799995 -0.009115009
0001d0 3a 0b da b9 f9 3e e6 bb 48 5d 0f 3b 97 67 4d 3d
       -0.00041588565 -0.00702655 0.0021875668 0.05014762
0001e0 6a 23 a2 bc f8 b8 49 3d cc 74 b1 3c fa 47 62 3d
       -0.019792277 0.049248666 0.021662138 0.055244423
0001f0 81 34 fa 3c 65 52 05 bd 22 f5 f3 3c 95 19 37 3d
       0.030542614 -0.03254928 0.029779974 0.04470213
000200 64 17 2d 3d 6e 47 84 bc 8a 5c fb 3c af 10 8a bc
       0.042258635 -0.016147342 0.030683775 -0.016853658
000210 53 85 6b bd c0 72 37 bd ba a0 bc 3c d4 b1 be 3c
       -0.057500195 -0.04478717 0.02302586 0.023278154
000220 c9 1d 6b 3d b5 e0 e4 3c ba ee 51 3c 08 f0 13 bd
       0.057401452 0.02793918 0.0128132645 -0.036117584
000230 34 3b 0c bd 07 5d 5e bc 14 8d 80 3d 1a a3 fa bb
       -0.034236148 -0.013571984 0.062769085 -0.0076488378
000240 3d ae 28 3d bd 9b 37 3d 67 16 f6 3c f6 84 fb bc
       0.04118179 0.044826258 0.03003998 -0.03070305
000250 84 e7 23 3c 32 cc 63 bc fa 2f 73 3d f2 78 d0 bc
       0.010003928 -0.013903664 0.059371926 -0.025448296
000260 fd 91 7a 3d 50 0e 30 3d 19 8a 3a 3d f4 2c 2e 3c
       0.06117438 0.0429824 0.045541856 0.010630835
000270 9d 4a 22 3c 9e 3e 11 bd 48 a8 0d 3d 52 5d 4e 3d
       0.0099054845 -0.035460107 0.034584314 0.050381966
000280 9a a3 b3 3c 43 1a 61 3d 2e 10 9f 3c b2 98 29 bd
       0.021928597 0.054956686 0.019416895 -0.041405387
000290 95 91 78 bc ee f5 0a 3d c6 d7 e3 bc 97 4b 8b bb
       -0.015171428 0.033925943 -0.02781285 -0.0042509544
0002a0 62 31 23 bd 57 08 99 bc 67 16 6a 3d 77 cc 00 bd
       -0.039842017 -0.018680735 0.05715027 -0.031444993
0002b0 87 99 23 3b 57 46 57 3d 41 99 4c 3d 03 92 7a 3d
       0.0024963336 0.052557316 0.04995084 0.061174404
0002c0 76 f6 22 3d 62 54 f8 bc 12 0a c9 3c 81 60 26 bc
       0.039785825 -0.030313674 0.024540935 -0.010154844
0002d0 2f fe 37 bd 32 fd 2f 3d 69 a6 c4 bc d8 a1 a5 bc
       -0.044920143 0.042966075 -0.024005132 -0.020218775
0002e0 14 70 93 bc ab 7a f0 bc d3 2c bb 3c 69 c2 66 bd
       -0.017997779 -0.029355368 0.022848522 -0.056337748
0002f0 e7 72 06 bd 54 a8 cb 3c f0 3e 50 bc be 42 d2 bc
       -0.032824423 0.024860539 -0.012710318 -0.02566659
000300 ae 8f 4b bd 6b 15 d2 3c 94 c9 0a bd bb 7c 22 bd
       -0.04969757 0.025644979 -0.033883646 -0.039669733
000310 5b 3a aa bc eb b6 54 bc e8 eb 66 bd 71 fe 18 3d
       -0.02077978 -0.012983064 -0.05637732 0.03735203
000320 16 d7 c8 bc 8c 01 cb 3b ad 52 40 3c 01 ab 29 bd
       -0.024516623 0.0061952528 0.011738461 -0.041422848
000330 73 3f 04 bc 77 4a 36 bd f8 8b 31 3c c2 2c 11 bc
       -0.008071768 -0.04450461 0.010836594 -0.008860769
000340 c9 6e 8d 3c ce 75 22 bd 95 56 af bc 74 b9 99 bc
       0.01726474 -0.03966313 -0.02140359 -0.018765189
000350 98 5b 19 bd bf d3 2b 3d 43 68 04 3c 53 bf 19 3d
       -0.037440866 0.041949984 0.008081499 0.037535977
000360 2c 1b 28 3d 50 0a 12 bc b5 34 47 3d 8a f1 59 3c
       0.041041538 -0.0089135915 0.04863425 0.013302216
000370 0d 34 d8 3b 55 50 3c bb d6 9c 71 bc 72 aa 18 bc
       0.006598002 -0.0028734405 -0.014746865 -0.009317981
000380 17 b9 0d 3d a8 fe c3 bb f0 6a 4d bc a2 c0 5e bd
       0.034600344 -0.005981285 -0.012537703 -0.054382928
000390 76 c2 a5 bb c7 52 04 3d d2 f2 e2 3c 82 d2 ce bc
       -0.005058582 0.032305505 0.027703676 -0.025246862
0003a0 4b b3 32 3d 86 0b 04 bd bc d1 a6 3b a0 40 7a 3c
       0.04362802 -0.032237552 0.0050909203 0.015274197
0003b0 97 0e bc bc 40 d3 56 bd e0 86 2e 3d 44 16 7c 3d
       -0.022956176 -0.052447557 0.042609096 0.06154467
0003c0 08 d7 fa ba ef b9 0a 3d bf 26 c8 bc 34 90 1d bc
       -0.0019137571 0.033868726 -0.024432538 -0.0096169
0003d0 70 e2 15 bd 9e 30 00 bd 94 00 01 3d 8d 08 30 bd
       -0.0365929 -0.031296365 0.031494692 -0.042976905
0003e0 e3 6f 59 bb c1 2e 59 bd 4b a2 92 3c 27 37 1e bc
       -0.0033178262 -0.053023104 0.017899653 -0.009656704
0003f0 d5 56 b4 ba d3 57 13 bd 35 8d 21 3d bd 7b 1e bd
       -0.0013758788 -0.035972428 0.039441306 -0.038692225

conv4.bias f4 [16]
000000 ab 24 ae 3c d3 a3 48 bc c5 44 77 3d 3f 86 e5 3c
       0.021257719 -0.01224609 0.060368318 0.028018115
000010 b7 fe 35 3b c7 c7 ba bb 11 52 66 3d 24 75 f2 3c
       0.002777023 -0.005700085 0.05623061 0.029596873
000020 89 bf d7 bc 98 12 39 ba 30 a2 a7 bc 91 be 66 bd
       -0.026336448 -0.00070599606 -0.02046308 -0.056334082
000030 dd 92 a1 3c 73 c4 24 3d 3a 45 0c 3d e5 a2 dc 3c
       0.01972335 0.04022641 0.034245707 0.026933143

conv_out.weight f4 [3, 16, 3, 3]
000000 8d 17 53 3c a7 25 84 bb 13 8e 01 3d a1 21 7a 3d
       0.012884033 -0.004032809 0.031629633 0.061067227
000010 7c 72 af ba ec 88 03 3d 77 02 b8 3b 0a e3 6d bd
       -0.001338556 0.032113 0.005615528 -0.05807785
000020 0f 7c 03 3d f1 2e 86 ba 38 a7 9d 3d b0 a0 90 3d
       0.032100733 -0.0010237378 0.0769791 0.07061899
000030 16 a1 96 bd 48 c8 a0 bc b4 6e 90 3d 67 f7 07 3d
       -0.073549435 -0.019626752 0.07052365 0.033194926
000040 04 44 b3 bc 89 8a 8d 3d 5b 66 9c 3d 94 e2 8f 3d
       -0.021883018 0.06911189 0.0763671 0.07025638
000050 99 89 e7 3c 50 b3 5f 3c 27 02 4d 3c e2 24 d5 bc
       0.028263854 0.013653591 0.01251272 -0.026018564
000060 d8 8b 90 3d d4 3b 25 3d 4e ea 9e bd 2a b0 43 bc
       0.07057923 0.04034026 -0.07759534 -0.011943856
000070 dc 50 e7 bc 6f 17 0c bc d4 3f e9 3c 90 71 b4 3d
       -0.028236799 -0.008550509 0.028472818 0.08810723
000080 b0 d9 4f 3c 49 5a 31 bd 65 de 95 3d be 21 90 bd
       0.012686178 -0.043298993 0.07317809 -0.07037686
000090 92 ed b2 3d 72 4d ee 3c 0f 10 26 bd 91 08 ae bb
       0.08736719 0.029089663 -0.04054266 -0.00531108
0000a0 d9 5e 3f 3d 95 dd 5e 3d 21 d0 93 bd ee 0f 89 3d
       0.046721313 0.054410536 -0.07217432 0.066924915
0000b0 4c 32 84 3d a0 ec 8f 3d 74 22 b1 bb ff b5 f0 3c
       0.06454906 0.070275545 -0.0054057185 0.029383658
0000c0 53 e9 7e 3d fa 93 31 bc 04 d7 17 3d 27 8b ae 39
       0.062234234 -0.010838503 0.03707029 0.00033291543
0000d0 14 88 50 bd 8d 38 1c bd 57 17 43 3d 9d c8 81 3d
       -0.050911024 -0.03813987 0.04762968 0.06337092
0000e0 5c a1 64 bd 63 ff ef bb 55 14 fe 3c c3 29 e8 bc
       -0.055817947 -0.0073241456 0.031015554 -0.028340226
0000f0 21 e9 68 bd 4d 60 ca bd 75 d3 c2 bd 07 f9 6f bd
       -0.056862954 -0.09881649 -0.095129885 -0.0585871
000100 80 bd 25 bd 94 6c 60 3d 02 1c 5f bc 21 d7 8a bd
       -0.040463924 0.05479105 -0.013617517 -0.06779314
000110 25 73 8b bd b1 c2 00 bd e2 a3 38 3d b0 67 42 3d
       -0.068090715 -0.031435672 0.045078166 0.047462165
000120 12 1d 17 bd c4 7e 0d bd ff c5 26 bd 9e d1 02 3d
       -0.036892958 -0.03454472 -0.040716168 0.031938188
000130 a9 ff 63 3d 4e 66 8e bd 54 c8 76 bd c6 eb 80 bd
       0.05566374 -0.06953107 -0.06024964 -0.0629497
000140 99 9e 90 bd 36 ac f8 3c ed 99 bf 3d b8 68 eb bc
       -0.070615 0.030355554 0.09355531 -0.028736457
000150 46 5a 1d bb 0f 3b 5d 3d bc 1c ec bb 3e 54 99 bb
       -0.0024010106 0.0540114 -0.007205574 -0.004679232
000160 c6 e7 74 3d 01 6b 39 3d 80 92 b0 bb b4 d8 97 bd
       0.05979135 0.045268063 -0.005388558 -0.0741438
000170 45 ab 29 bd 6a d0 80 bd aa 12 8e 3c fb e7 b7 bd
       -0.0414231 -0.06289752 0.017342884 -0.08979794
000180 41 d2 37 3d f2 23 49 3d 07 f7 3f 3c 73 45 85 bd
       0.044878248 0.049106546 0.011716611 -0.06507387
000190 31 ce 80 bc fe ba 81 bc e0 58 19 bd 4b 14 91 ba
       -0.01572332 -0.015836235 -0.037438273 -0.001106867
0001a0 7a e2 97 3d 53 4e 49 3d 8c a8 8e 3d 62 c2 2c bd
       0.07416244 0.04914696 0.069657415 -0.042177565
0001b0 6f 66 ec 3c 9a 1a 95 bd 72 32 4e 3d 2a df bb b9
       0.028857438 -0.072804645 0.050341077 -0.0003583369
0001c0 2a 90 53 bd 12 4b 50 3d 5b 96 e8 bb a4 98 80 bd
       -0.051651157 0.050852843 -0.007098002 -0.06279114
0001d0 fd 32 81 3c 68 78 69 bd 5d 85 88 3c 82 8a 1e bd
       0.015771383 -0.056999594 0.016665155 -0.03870631
0001e0 9a 06 7f 3c 16 3c ce bc 7f ac 62 bd 59 d9 45 bd
       0.015565539 -0.025175136 -0.055340286 -0.048302982
0001f0 67 26 29 bd b5 f1 a3 bd cc 27 6c 3d 22 f1 2e bc
       -0.04129639 -0.08005086 0.05765514 -0.010677608
000200 84 64 41 bc 8b 85 20 3b f0 df 4a bd dd 04 06 3d
       -0.01180375 0.002449366 -0.04952997 0.03271948
000210 02 d8 4a bd b0 d4 4d bd 7f 77 b9 bb 50 45 d1 3c
       -0.049522407 -0.050251663 -0.005659997 0.025545746
000220 91 b4 91 bd cd 54 76 bd 6f b1 91 3d 7e b1 8a bd
       -0.071145184 -0.060139466 0.07113921 -0.06772135
000230 6f 63 88 bb 1c e7 6e bd 19 b5 8e bd a3 bc 90 3d
       -0.004162244 -0.05832587 -0.069681354 0.070672296
000240 8b b2 9b 3d 9f 58 a5 3d 7c ab 8c 3c cd 04 ed 3c
       0.07602414 0.08073544 0.017171614 0.028932953
000250 54 4f b8 3c 1a 9b 20 3d 3b 11 6e bc 0b 84 bc 3c
       0.022498764 0.039210416 -0.014530475 0.023012182
000260 5f 31 98 bc 6c e5 4d bd ba e7 eb bc 0c f1 2d bd
       -0.01857823 -0.050267622 -0.02879702 -0.04246621
000270 33 c5 df 3c df 73 74 3d a0 f3 c0 3c 02 4d e0 bc
       0.027315712 0.059680816 0.02355367 -0.02738047
000280 47 0d 55 ba f8 ae 80 3d f7 17 65 3d a3 fd 72 3c
       -0.00081272837 0.06283373 0.055931058 0.0148309795
000290 28 bb 8f 3d 5b d4 81 3c 78 df 5b bd 3f 7f 0e bc
       0.07018119 0.01584833 -0.053679913 -0.00869733
0002a0 ca 71 98 3d da 54 8a 3d e9 42 12 bd ff 2c c8 bc
       0.074435785 0.067544654 -0.03570834 -0.024435518
0002b0 03 91 b4 3d 6d 70 90 3c 8b 35 fc 3c b7 30 bc bc
       0.08816721 0.017631734 0.03078725 -0.022972448
0002c0 19 34 94 3d 71 fc 3c bd b6 92 e1 3c 09 7d a8 3d
       0.07236499 -0.046139184 0.027535778 0.082269736
0002d0 cc 96 4c 3d b6 d7 75 3d 58 f8 52 3d 3f f8 38 bd
       0.0499485 0.06002017 0.05150637 -0.04515862
0002e0 fc 7a 83 bd a1 44 4c bd 56 01 82 bd 9f b1 6c bd
       -0.06419942 -0.049870137 -0.06347911 -0.05778658
0002f0 f9 59 2d 3d 52 38 03 3d 77 f4 2f 3d 60 e6 96 3c
       0.042322133 0.032036133 0.04295775 0.018420398
000300 69 13 a1 3d 43 fa 36 3c b1 d7 84 bd 3f ec 81 3a
       0.0786503 0.0111680655 -0.06486452 0.0009912326
000310 dd 3d d6 3c b2 cd 91 bc 03 35 4d 3d 75 c5 6e 3b
       0.026152546 -0.017798278 0.050099384 0.0036433612
000320 9a 93 0c 3d 02 8a 2e bc ba 7e 19 3d 1e c1 c7 bc
       0.03432045 -0.010653021 0.03747437 -0.024384078
000330 a5 30 af bd 3e b1 97 bd ba 88 b7 bd 6d 72 1d 3d
       -0.085542 -0.07406853 -0.089616254 0.038439203
000340 45 15 82 bd dd 33 08 3d b6 2b 40 bd 2c 2c 87 bd
       -0.06351713 0.033252586 -0.046916686 -0.06600222
000350 70 0e 71 3d 19 ef 34 bd 6d 09 55 bd dc 52 21 bc
       0.05885166 -0.044173334 -0.052010942 -0.009846415
000360 77 95 53 3d cb c8 09 bd 5c 7e 7f bc 9b c7 86 3b
       0.051656213 -0.033638757 -0.015594091 0.0041131503
000370 23 a0 9b 3d 31 57 8b 3c b1 c2 72 3d cc 74 5b 3a
       0.07598903 0.01700935 0.059267703 0.0008371591
000380 c1 17 72 3d 35 1c 26 3d 1f a4 2e 3d bc 95 74 3d
       0.059104685 0.040554244 0.042636987 0.05971311
000390 b9 00 66 bd 15 82 35 bd 97 cc 7c bd 72 7c b7 3b
       -0.056153033 -0.04431351 -0.06171855 0.005599552
0003a0 46 0b 0c 3d 76 c7 ac 3d fb c2 06 bd ea 14 21 bc
       0.03419044 0.08436482 -0.03290079 -0.009831646
0003b0 e6 bb 44 bd cf c5 5d 3d 72 00 c6 bb 8d 7a 1d 3d
       -0.048030756 0.054143723 -0.0060425336 0.03844695
0003c0 af 52 97 bd 35 01 be bd 3d 98 32 3c b9 41 14 3c
       -0.073888175 -0.09277574 0.010900554 0.009048873
0003d0 3d ed 97 3d 27 d7 69 bd 47 93 91 3c 59 d7 4b bd
       0.074182965 -0.05708995 0.017770423 -0.04976592
0003e0 2c 3f 49 bc 36 b0 fd bc 10 61 7d 3d 52 77 20 3d
       -0.012283128 -0.030967813 0.061860144 0.039176293
0003f0 d0 c9 a7 bd 89 84 a9 bd ba 0f 9a bd 89 75 a1 3c
       -0.081927896 -0.08277232 -0.07522531 0.019709365

conv_out.bias f4 [3]
000000 12 c7 cc 3b da ce 7e bc 96 53 09 bd
       0.006249317 -0.015552247 -0.03352698

exp_avg f4 [3, 3]
000000 6e c5 9c 3a 00 00 00 00 00 00 00 00 00 00 00 00
       0.0011960694 0.0 0.0 0.0
000010 83 3e 9d 3a 00 00 00 00 00 00 00 00 00 00 00 00
       0.0011996779 0.0 0.0 0.0
000020 32 d0 7b 3a
       0.00096059137

exp_avg_sq f4 [3, 3]
000000 36 88 93 37 00 00 00 00 00 00 00 00 00 00 00 00
       1.7587194e-05 0.0 0.0 0.0
000010 78 ae 8f 37 00 00 00 00 00 00 00 00 00 00 00 00
       1.7128172e-05 0.0 0.0 0.0
000020 61 ba 48 37
       1.1964324e-05

exp_avg f4 [3]
000000 0e 4f 79 bc cb f1 90 bc 93 8f 41 bc
       -0.015216602 -0.01769342 -0.011814016

exp_avg_sq f4 [3]
000000 a7 b3 25 3b 92 a9 a8 3b 80 20 2e 3b
       0.0025284083 0.0051471675 0.0026569664

exp_avg f4 [64, 3, 3, 3]
000000 7d 00 29 b8 78 41 28 b8 b7 36 34 b8 66 9c 26 b8
       -4.0293195e-05 -4.0115294e-05 -4.29663e-05 -3.972314e-05
000010 2a 17 26 b8 4f 8c 31 b8 73 5a 2e b8 13 73 2e b8
       -3.9599057e-05 -4.233076e-05 -4.156907e-05 -4.1592004e-05
000020 0d 75 38 b8 df 78 33 b8 0c ca 32 b8 9a 21 3e b8
       -4.397803e-05 -4.2789496e-05 -4.2626678e-05 -4.5330824e-05
000030 c0 92 31 b8 e2 2a 31 b8 9d 0b 3c b8 b4 2d 39 b8
       -4.233676e-05 -4.2240026e-05 -4.483351e-05 -4.415e-05
000040 b7 6e 39 b8 38 f8 42 b8 d3 e5 15 b8 6f 61 15 b8
       -4.421055e-05 -4.6484376e-05 -3.573841e-05 -3.561511e-05
000050 18 9b 1f b8 29 c6 14 b8 e9 88 14 b8 ef 47 1e b8
       -3.8052996e-05 -3.54705e-05 -3.5413457e-05 -3.773713e-05
000060 7f 1c 1c b8 e7 76 1c b8 e0 f4 24 b8 bd 89 70 39
       -3.7219837e-05 -3.7304035e-05 -3.9328705e-05 0.00022939495
000070 5c 9d 67 39 15 34 70 39 2e e1 65 39 98 40 5d 39
       0.00022088498 0.00022907586 0.00021923028 0.00021100265
000080 01 80 67 39 8f d3 6f 39 d7 36 68 39 b6 83 71 39
       0.00022077562 0.00022871628 0.00022145674 0.00023032617
000090 d6 f4 80 39 87 66 79 39 7f b7 80 39 84 48 78 39
       0.0002459648 0.00023784685 0.00024550778 0.00023678137
0000a0 1f 28 70 39 ee db 79 39 e1 16 81 39 ca 21 7b 39
       0.0002290313 0.0002382842 0.00024621843 0.00023949813
0000b0 75 05 82 39 69 51 5a 39 68 03 53 39 fd 8b 5a 39
       0.00024799598 0.00020820428 0.00020123797 0.0002084225
0000c0 bd 9e 52 39 f0 bc 4b 39 13 97 54 39 f7 75 5c 39
       0.00020086295 0.00019429973 0.00020274175 0.0002102478
0000d0 4b 60 56 39 c1 45 5e 39 ab 73 cb b8 66 30 c5 b8
       0.00020444502 0.00021197555 -9.701339e-05 -9.402707e-05
0000e0 5f ab d0 b8 4e 76 cb b8 ab 95 c6 b8 35 3a d2 b8
       -9.950133e-05 -9.70183e-05 -9.4692536e-05 -0.00010024422
0000f0 f0 71 dd b8 6b 7a d9 b8 f5 82 e2 b8 d4 77 db b8
       -0.00010559324 -0.000103701685 -0.000108009124 -0.000104650535
000100 12 9c d5 b8 13 80 e0 b8 8b e4 db b8 a2 73 d7 b8
       -0.00010185702 -0.00010705008 -0.00010485303 -0.00010273537
000110 f2 8d e2 b8 83 53 ed b8 53 cb e9 b8 0f 73 f2 b8
       -0.00010802959 -0.00011316596 -0.00011148178 -0.000115608906
000120 fb 89 b3 b8 f8 51 ae b8 04 30 b8 b8 d8 c4 b4 b8
       -8.561086e-05 -8.3122344e-05 -8.782747e-05 -8.619734e-05
000130 f6 ed b0 b8 e0 e3 ba b8 f2 2e c5 b8 78 19 c2 b8
       -8.436658e-05 -8.911616e-05 -9.402436e-05 -9.255385e-05
000140 ea b9 c9 b8 ac be 1e b8 c1 fe 0c b8 8c 01 ef b7
       -9.619056e-05 -3.7847713e-05 -3.361586e-05 -2.849174e-05
000150 69 4c 59 b8 46 84 4b b8 ae c5 2e b8 83 2e 83 b8
       -5.1807994e-05 -4.852216e-05 -4.1668936e-05 -6.25523e-05
000160 4c 0d 7d b8 01 52 5f b8 02 c8 1a b8 91 60 0a b8
       -6.0332284e-05 -5.3243715e-05 -3.6902733e-05 -3.29917e-05
000170 15 36 ec b7 bd b4 52 b8 95 12 46 b8 8c de 2a b8
       -2.8158576e-05 -5.0236227e-05 -4.7224185e-05 -4.073842e-05
000180 43 81 7d b8 6a 0a 75 b8 2d da 58 b8 59 2c 10 b8
       -6.0440285e-05 -5.842225e-05 -5.1701605e-05 -3.4373577e-05
000190 67 33 00 b8 0c 89 da b7 8f f0 44 b8 5b 23 38 b8
       -3.056545e-05 -2.6051443e-05 -4.695408e-05 -4.3901946e-05
0001a0 d1 a1 1e b8 74 8b 6d b8 05 c8 64 b8 31 fd 49 b8
       -3.782084e-05 -5.663508e-05 -5.454572e-05 -4.8157937e-05
0001b0 1d 4f c8 b8 6c d9 f3 b8 4f f6 15 b9 c7 b2 b7 b8
       -9.551479e-05 -0.00011627641 -0.00014301504 -8.75942e-05
0001c0 94 e5 e2 b8 60 5f 13 b9 bd a3 ae b8 82 3b d6 b8
       -0.00010819282 -0.00014054542 -8.327465e-05 -0.000102153994
0001d0 ce 6a 0d b9 ba 0c cd b8 fb 44 f6 b8 9f c9 15 b9
       -0.00013486596 -9.777532e-05 -0.00011743043 -0.00014284857
0001e0 bd d5 bb b8 1e 79 e4 b8 77 72 12 b9 93 3e b2 b8
       -8.956667e-05 -0.00010894447 -0.00013966286 -8.499357e-05
0001f0 f2 6d d7 b8 15 56 0c b9 b1 36 ec b8 24 d2 09 b9
       -0.00010272478 -0.00013383508 -0.00011263544 -0.00013143622
000200 57 e6 22 b9 17 db db b8 89 23 01 b9 d6 1f 1f b9
       -0.00015535332 -0.000104835424 -0.00012315637 -0.00015175281
000210 d1 6d d2 b8 0e 74 f5 b8 11 11 19 b9 f8 1c 30 38
       -0.00010034035 -0.00011704127 -0.00014597575 4.198865e-05
000220 cb af 12 38 c2 45 1f 38 04 33 53 38 54 bd 3e 38
       3.4972833e-05 3.797352e-05 5.0353832e-05 4.5475856e-05
000230 40 12 46 38 99 5b 7b 38 f2 08 6b 38 5f 95 75 38
       4.7223875e-05 5.992837e-05 5.6036697e-05 5.8551665e-05
000240 a0 09 56 38 1d 4d 3a 38 b9 24 46 38 4d 93 76 38
       5.103054e-05 4.4417673e-05 4.724108e-05 5.8788155e-05
000250 6d 87 63 38 56 8d 6a 38 35 67 8d 38 98 c4 85 38
       5.4247143e-05 5.5921577e-05 6.742628e-05 6.378553e-05
000260 0b 0a 8b 38 0c 87 31 38 be 93 19 38 f4 cf 24 38
       6.629907e-05 4.232586e-05 3.661564e-05 3.929432e-05
000270 8c ed 4e 38 9a 14 3f 38 30 9b 45 38 df 4a 6e 38
       4.933546e-05 4.5557135e-05 4.711299e-05 5.681335e-05
000280 d5 57 61 38 48 5f 6b 38 89 dc 0b b4 29 e3 00 b4
       5.372598e-05 5.6117104e-05 -1.3025614e-07 -1.200357e-07
000290 b3 c6 bf b3 79 ce 51 b4 b0 a3 5f b4 b3 c1 34 b4
       -8.930274e-08 -1.9539756e-07 -2.0828043e-07 -1.6834274e-07
0002a0 52 41 89 b4 6a aa 92 b4 db 00 6f b4 0a 20 07 b4
       -2.5565765e-07 -2.7318612e-07 -2.2258921e-07 -1.258451e-07
0002b0 d4 6f f6 b3 f9 92 b1 b3 0a b5 4e b4 0e 3d 5c b4
       -1.1475609e-07 -8.268939e-08 -1.9251107e-07 -2.0511308e-07
0002c0 fb 53 2f b4 90 c5 88 b4 76 27 92 b4 34 25 6b b4
       -1.6328697e-07 -2.547572e-07 -2.722333e-07 -2.1899615e-07
0002d0 da 67 03 b4 db cf ee b3 8b 18 ab b3 5a f3 44 b4
       -1.2238107e-07 -1.1120547e-07 -7.967272e-08 -1.8342453e-07
0002e0 4e ed 50 b4 51 74 24 b4 d4 52 80 b4 d6 78 88 b4
       -1.945784e-07 -1.5316006e-07 -2.3902123e-07 -2.5419894e-07
0002f0 cf fa 58 b4 a3 87 2b b8 54 96 2c b8 86 5b 34 b8
       -2.0207811e-07 -4.08959e-05 -4.1148e-05 -4.3000582e-05
000300 5c 40 26 b8 0e f7 29 b8 5b a8 33 b8 43 2e 28 b8
       -3.9637423e-05 -4.0522827e-05 -4.283372e-05 -4.0097406e-05
000310 1b 9a 2d b8 96 bd 37 b8 25 bf 34 b8 ea be 35 b8
       -4.1389936e-05 -4.3807166e-05 -4.309336e-05 -4.3331565e-05
000320 61 13 3d b8 c4 1a 30 b8 02 ac 33 b8 f3 d7 3c b8
       -4.507916e-05 -4.1986597e-05 -4.283712e-05 -4.502381e-05
000330 b0 2a 32 b8 c3 68 37 b8 15 03 41 b8 16 cc 17 b8
       -4.2478263e-05 -4.3728167e-05 -4.6017656e-05 -3.6191275e-05
000340 c0 cc 18 b8 52 60 1f b8 fb 34 14 b8 2c 81 17 b8
       -3.6430312e-05 -3.799826e-05 -3.533529e-05 -3.6121506e-05
000350 2c b2 1f b8 b8 89 16 b8 cc 46 1b b8 5c ce 23 b8
       -3.807449e-05 -3.5891047e-05 -3.7020814e-05 -3.9054416e-05
000360 45 5d 0b b9 28 72 09 b9 ee ad 01 b9 bd ad dc b8
       -0.00013290819 -0.00013107865 -0.00012367193 -0.00010522779
000370 b3 b0 d8 b8 9a cb d1 b8 48 e0 a2 b8 36 bf 93 b8
       -0.000103325954 -0.0001000382 -7.7665376e-05 -7.045122e-05
000380 02 27 93 b8 25 71 fb b8 8c 4c f7 b8 4b 7c e8 b8
       -7.016772e-05 -0.000119896875 -0.00011792136 -0.000110857734
000390 19 d2 c4 b8 3a 7a c0 b8 3f 7c b9 b8 d7 7f 8e b8
       -9.385142e-05 -9.17804e-05 -8.84463e-05 -6.7949e-05
0003a0 1b e0 7e b8 52 8c 7c b8 7c e9 eb b8 04 ff e7 b8
       -6.0767034e-05 -6.0212165e-05 -0.00011249163 -0.00011062439
0003b0 29 1d da b8 a3 73 b9 b8 4a fa b4 b8 b3 fd ad b8
       -0.000104004816 -8.8430264e-05 -8.629689e-05 -8.296538e-05
0003c0 ff 4c 87 b8 6d 3a 71 b8 bf 0e 6e b8 bc ef b7 b4
       -6.451643e-05 -5.751329e-05 -5.6757355e-05 -3.4260836e-07
0003d0 96 e2 20 b5 fe e1 23 b5 b8 d7 40 b4 2c 76 e4 b4
       -5.993437e-07 -6.1051094e-07 -1.7959871e-07 -4.255429e-07
0003e0 6d 0f 10 b5 50 c4 0b b4 2b ed 8b b4 c0 21 ec b4
       -5.366663e-07 -1.3016802e-07 -2.606333e-07 -4.3982982e-07
0003f0 e3 4c b4 b4 bd ec 1e b5 ba 55 21 b5 eb 9f 35 b4
       -3.3583555e-07 -5.9204086e-07 -6.010192e-07 -1.6915116e-07
